saved_models/NonlinearRegression.pth (torch, 10497 bytes, 11 tensors)

net.0.weight f4 [20, 1]
00000000: 9afe 283f 1142 c23e 309c 17bf 1c0b 33bf
00000010: 7052 1fbf fcd4 5b3d 22e6 26bf 6609 303c
00000020: 321b 023f e510 19be 3698 273f 8333 a53e
00000030: e600 0abf 3341 b23d 94ef a0be 8287 33bf
00000040: 8cd4 01bf 1267 64bf 04b0 bb3e 1c7a 3b3f
0.6601349 0.3794103 -0.592227 -0.69938827 -0.62235165 0.053669915 -0.65194905 0.010744428
0.50822747 -0.14947851 0.6546663 0.32265863 -0.5390762 0.08703842 -0.31432784 -0.70128644
-0.50714946 -0.8921977 0.36657727 0.732332

net.0.bias f4 [20]
00000000: c3ad 09c0 b4cc 96bf 1c0a 78bf b421 c9be
00000010: 9838 b63e fae2 423d a077 a2be beee f63e
00000020: 7af2 a6bf 3e78 973f ad3f fbbf c6ca 05bf
00000030: 5235 503f 9e81 a23e 9676 2a3f e83a 113f
00000040: 0c3a 1d3f f428 d33e 88d2 89bf b527 12c0
-2.1512306 -1.178122 -0.96890426 -0.39283526 0.35590053 0.047579743 -0.31731892 0.4822902
-1.3042748 1.183357 -1.9628807 -0.5226253 0.8133136 0.31739515 0.665872 0.5673051
0.614167 0.41242182 -1.0767374 -2.2836735

net.2.weight f4 [20, 20]
00000000: 699c 91bc 7be7 70be c001 113b 2688 ecbd
00000010: d68a 12be c490 2d39 b3b2 5ebe 310c 3ebe
00000020: 23a9 123e 2341 58be 5b6c 59be fec5 d83d
00000030: 1e63 44be 45b3 b2bd 40fc 163e dc2f 403e
00000040: 3c31 42be 14de 4d3e e7a7 833d 1f84 453e
00000050: cc41 b83e d7bf d83d ae6a 533e 5868 cc3d
00000060: 4463 90bd 9f20 443e b8b3 573e 3a8c a43d
00000070: 5df2 543e b6cd ab39 1b13 353d 77f2 f53c
00000080: 2c73 233e c5ef efbc e8de 96bd aeb2 293e
00000090: 268c 023e b5cb f6bd 3455 5c3e 3ff1 dd3e
000000a0: 5a17 86be 7a6b 0e3d 242c 06be 048e ce3d
000000b0: 1e2f 61be 28cb ec3d 1ef3 47be f26b 593e
000000c0: 4f83 cf3d 8524 333f d414 d2be 4860 fb3d
000000d0: 3005 41bc b607 e73e 48ab 2f3d 80a1 0f3b
000000e0: 4eae 39be 88b7 153d 56b2 313e 0a0a bcbe
000000f0: a40e 863e 2ad7 503e 36f6 483e 9245 173e
00000100: 6c89 9f3d a003 063e ea13 313e 176b 6abe
00000110: 4807 813d 34f0 0cbe 73cc 9a3e 3068 2ebd
00000120: 32ab 213e 8eac 59bd 342e 953d d2c6 43be
00000130: 660e 313e a492 07be 2678 323e 89b4 6f3e
00000140: 5f46 1d3d e80b 5ebd 3bc1 e9bd 30f9 2abd
00000150: dc2c 273e 960b 13be 5bc0 d4bd e0cc 5d3c
00000160: f808 3e3e b2cf 01be f1cd b33e 5031 733e
00000170: dcfc 3dbe 25e4 aa3d c0b8 dd3c 70b9 f1bc
00000180: f0fb 603c a4b2 533e 7322 683e 3838 1a3d
00000190: 6bdd a3be 6819 95be d427 29bd 1c20 1f3e
000001a0: c0c1 3dbe 78b8 b63d ea04 bcbd 15a0 f73d
000001b0: 4813 68be 1cdd 453e ac30 02be 4bd5 3a3d
000001c0: 86da 0b3e d0f9 0a3e 301c 7c3d 50eb 87bd
000001d0: e29c 1d3e 786f fa3d c056 3dbe 18a0 dfbe
000001e0: bbfe 46be 30a6 ffbc 54a6 ce3d a49d 193e
000001f0: f4c9 2cbe 5c9a 3f3e d8fb d03d 6c37 9c3d
00000200: 42a1 21be d190 e6bd e41f 0e3e f52d 42be
00000210: 74eb 8b3d 374b f4bd 2c5e ff3d 9401 4e3e
00000220: b02a 243e 8f4f 35be 703d c8bd f65e 143e
00000230: e67c 14be 66a1 aebd 9d85 5abe a019 0fbe
00000240: d256 ffbd 8884 e7bc d8e9 323d 8463 3cbe
00000250: 6800 f13d 8a8a b9bd a011 62bd 083e 683d
00000260: 429e 4e3e 80cb 253c bc45 573e 58d8 383d
00000270: 80ec 39bd 2043 bf3c beba 23be 24b2 d43d
00000280: 8d0a ac3c a679 943d c6e4 4a3e a0f1 513d
00000290: a263 d6bd d72c 9e3c c022 40bb 76c2 00be
000002a0: cf4e ffb9 8170 8abd 2710 4b3e 0f82 d53c
000002b0: 11e7 64be 16fe 7fbd 5a67 b3bd f06b 3a3d
000002c0: f0f9 543e 90de d1bc cb42 bd3c 7d7f 6dbe
000002d0: ab70 08be dec3 39be d8d1 9f3c bc0c 5cbd
000002e0: c4bd 1dbe 404f 57be 58c4 2abe 943d e13d
000002f0: 6cf0 e33d a041 023d 3020 c2bd 3c72 5d3e
00000300: 304d c03d 088a d1bc 7ccf 9e3d 8b98 e6bd
00000310: 60f0 0d3d 0024 0b3c afed 5bbe 02d4 0dbe
00000320: d4ef d2be 6cc2 88be 70d8 38bc 40ae 3cbb
00000330: 52cf ebbd 7820 bd3d ee11 5abe 70b8 3ebd
00000340: a2c7 93be ddf1 943e 393f 0ebf 3f28 f83b
00000350: c93e d3bd 16d1 b93d 3849 e13d e060 b5bd
00000360: 2ccc 31bd ac12 423e 9016 a7be d2b5 f3be
00000370: 8012 fd3c a1c1 61be f8cb 8e3d 38e4 7e3d
00000380: 04cf d33d 6850 993c d019 e5bc c8d8 0c3e
00000390: cbb6 44be 35b1 28be 945a 10be 3c99 39be
000003a0: b0d4 afbd 7c7d 4cbd 47f8 58be 166d 003e
000003b0: b295 153e 8086 47bd fe95 e1bd 1ed2 2c3e
000003c0: fd6b 9b3e e7aa 333e 98de 42bd e067 fa3b
000003d0: 0080 ccbb 640b 04be 5fa8 25be 70b0 17be
000003e0: be00 3bbe f1f9 c1be 56b8 1a3d 78d8 8cbe
000003f0: 96eb c1bd c85d 33be eeee 3e3e 30ed fa3d
-0.017774777 -0.23525803 0.0022126287 -0.11549406 -0.14310774 0.00016552495 -0.21747856 -0.18559338
0.14322333 -0.21118598 -0.2123274 0.10584639 -0.19178435 -0.08725599 0.14744663 0.18768257
-0.18964094 0.20104247 0.06428509 0.19288681 0.359877 0.105834655 0.20646164 0.099808395
-0.070501834 0.19153069 0.21064651 0.080345586 0.20795579 0.00032768928 0.044207674 0.030022843
0.15961903 -0.029289136 -0.07366735 0.16572067 0.12748775 -0.12050573 0.21516877 0.4334812
-0.2618969 0.034770466 -0.13102776 0.10085681 -0.2199063 0.115621865 -0.19526336 0.21232584
0.10132467 0.699776 -0.41031516 0.122742236 -0.011781022 0.4512307 0.042887956 0.002191633
-0.18132898 0.036551982 0.17353186 -0.3672641 0.26183045 0.20394579 0.19625172 0.14772633
0.07789883 0.1308732 0.17292753 -0.22892414 0.06300217 -0.13763505 0.30234107 -0.04257983
0.15787962 -0.053143077 0.07284203 -0.19118813 0.17290649 -0.13239533 0.17428645 0.23408712
0.03839719 -0.054210573 -0.11413809 -0.04174155 0.16325706 -0.14359888 -0.103882514 0.013537616
0.18558109 -0.12676886 0.35118058 0.2374928 -0.1855349 0.08344296 0.027065635 -0.029507369
0.013731942 0.20673615 0.22669391 0.03765127 -0.32004866 -0.29120946 -0.04129775 0.15539593
-0.18530941 0.08921903 -0.09180625 0.1209108 -0.22663605 0.19322628 -0.1271388 0.04561357
0.13657579 0.13571858 0.06155032 -0.06636679 0.15391877 0.12228292 -0.18490124 -0.4367683
-0.1943311 -0.031207174 0.10090318 0.15001541 -0.16873914 0.18711227 0.102042854 0.076277584
-0.15784171 -0.1125809 0.13879353 -0.18962844 0.068320185 -0.119284086 0.12469134 0.2011779
0.16031909 -0.1770613 -0.09777343 0.1448935 -0.1450077 -0.08526878 -0.21340032 -0.13974619
-0.124677315 -0.028261438 0.043680042 -0.18397337 0.117676556 -0.09059627 -0.05519259 0.056699783
0.20177558 0.010119319 0.21022695 0.045128196 -0.04539156 0.023347437 -0.15989205 0.1038554
0.021001125 0.07249765 0.19813833 0.051255822 -0.10468222 0.01930849 -0.0029317588 -0.12574181
-0.00048696107 -0.0675974 0.1983038 0.026062993 -0.2235377 -0.062498175 -0.08759947 0.045513093
0.20798469 -0.025618821 0.023103138 -0.23193164 -0.1332423 -0.18141124 0.019509241 -0.053723082
-0.15404421 -0.21026325 -0.16676462 0.10998073 0.11129841 0.031800866 -0.094787955 0.21625608
0.09389722 -0.025578514 0.07754418 -0.11259564 0.034653068 0.00849247 -0.21477388 -0.13850406
-0.411986 -0.26710832 -0.0112820715 -0.0028790385 -0.115141526 0.092347085 -0.21295902 -0.046562612
-0.28863245 0.29090777 -0.5556522 0.007573157 -0.1031471 0.09073083 0.110002935 -0.08856368
-0.043407604 0.18952435 -0.326344 -0.47599655 0.03089261 -0.2204652 0.06972498 0.062229365
0.103422195 0.018715099 -0.02796641 0.1375457 -0.19210355 -0.16473849 -0.14097053 -0.1812486
-0.08585489 -0.04992436 -0.2118846 0.12541613 0.14607885 -0.048712254 -0.11014937 0.16877028
0.30355826 0.17545663 -0.047575563 0.0076417774 -0.0062408447 -0.1289497 -0.1617751 -0.148134
-0.18262002 -0.37886003 0.037773453 -0.27508903 -0.094687626 -0.17516243 0.18645832 0.12252271

net.2.bias f4 [20]
00000000: 40c9 89bd 4da1 69bf e469 d03e bea1 30bf
00000010: 2f22 a5be 77b8 5e3f ff27 32be 4fb0 d2bd
00000020: 13f8 9fbd b4e4 1abe c897 a63d aa10 0abe
00000030: d916 b1be f9d5 27bf 195d 5bbe 3fbd 0fbe
00000040: 6d6a 7c3f aa66 203e 0000 b33b 8282 053e
-0.067278385 -0.9126175 0.40705788 -0.689968 -0.32252643 0.8700022 -0.1739807 -0.102875344
-0.07810988 -0.15126306 0.08134419 -0.1348292 -0.34587744 -0.6556087 -0.21422233 -0.14037035
0.9859989 0.15664163 0.0054626465 0.13038066

net.4.weight f4 [20, 20]
00000000: 89d2 4a3d b768 9ebd 25da 5fbe 54c0 be3c
00000010: 525e 973d 1e52 3cbe 3057 843d 146e 4d3e
00000020: 606a 2abe fe33 27be bb00 a83c 5883 c83c
00000030: ce3c 18bd ea35 1dbe 9d1e cebd 56f3 743d
00000040: 05ad 50be c898 763d c81f 573d dc91 003e
00000050: c044 78bc 495d 44be b73a 2d3f 1579 aabe
00000060: e155 aebe 2ece 0ebe 34f7 60be 50bc 723c
00000070: 54bf 443e 7cd0 b33d 38cc bdbe 4cbd 8c3d
00000080: 48df 30be 1710 7d3d 8932 fb3d 8c2b 4dbd
00000090: 8a41 d03d 4ca8 5bbe 5abd afbd 8eaa 4a3e
000000a0: adf7 9d39 53c7 85bd dbea b43e dfd4 963d
000000b0: 656d 213e 8c06 8bbe fc98 cd3d a6bd 89bd
000000c0: ed8b a93d 68a5 703d 0e6a 3abe 7a19 303e
000000d0: 24a2 b8be 9058 883d 1fb0 2f3e 65db 86bd
000000e0: cdf4 d7bd d078 87bd 8121 61be 0fe3 aebd
000000f0: 609d 04be 22c2 f4bd 6744 c23d 7fbf 143d
00000100: dd6d a4bd 0bd6 333e 268f e5bd 6df8 58be
00000110: 0a7b 623e 30ac 9ebd 2ecf 45be 4cf9 f63d
00000120: c8ce bc3c 7ae8 4ebe 525f 28be b78a 5f3e
00000130: 8db3 4dbe a310 463e f832 9b3c a08b 59be
00000140: 3407 9a3d 6ece 00be 60b3 dc3c 8b50 d8bd
00000150: 804e 24bd 423e 013e 70a9 633e a488 513e
00000160: 00f4 593a 007b f13a c6e1 0ebe f8be c2bd
00000170: ac07 8f3d 2e05 03be bc15 63be d41d 3ebd
00000180: 70c7 d3bd 7a71 39be b895 8fbc d8a9 4ebe
00000190: ff1a f3bd 0070 7bbb 6c58 5cbd 0c29 a63d
000001a0: 70e2 bf3c 68d5 99bd a0ce 26bc a452 4ebd
000001b0: 98b3 cbbd a083 0bbd 14ee aabd 082e a23d
000001c0: 5801 933c e0a7 85bd 8060 acba de03 19be
000001d0: 1592 4dbe 431d 48be 006e 113d 72a3 5f3e
000001e0: 885c ea3d 8070 31be 3327 7f3d 421e 4fbe
000001f0: cc46 d1be df63 5a3e 6f6e d6bd 685c 893d
00000200: 74f7 a33d d452 613e 95db ae3d 4c3d 8b3d
00000210: 4c70 243e 41ff 76be 4cc5 6bbe 25a1 4bbe
00000220: 49db 993e c774 0bbe 34ae 563e f1ce 623e
00000230: 87e4 f5bd a6af 65be c3e9 20be ce10 03be
00000240: dbfe 863c 1fd6 1c3e 84d3 b8bd ae59 5e3e
00000250: 64e3 0f3e 7aa8 bfbd cbce 883d a08c 4ebc
00000260: 6003 f23c 7c71 853d adcd 133d a24f 993c
00000270: c47c c9bc fc79 503e 715d 63be 6773 1cbb
00000280: 103b 4b3e b2d8 8ebe f66d dc3c b4aa 843d
00000290: 0a1c 21be f3dd ff3c 72f6 b1bd c8df cb3d
000002a0: 9814 9bbc 6eb9 60be db8e 96bd 6eee 28be
000002b0: c2ff 95bd bf8c 1c3d 9ffb 3a3e f71e 84be
000002c0: 1b8a 173e 8635 cc3d 5b3e fabd 7b39 56bb
000002d0: 207e f03c c55e ec3d 93cf aebd 07e6 c5bd
000002e0: 1ddb b0bd 643e 7dbd 74ee 813d 78ae 19be
000002f0: 5097 293d 5cec 01be 7e9f 813d 7cb9 1a3e
00000300: b0a0 2bbd 20f3 48be 9db9 1cbe d9a6 fe3d
00000310: fabe 343e da50 573d 985c f83d c286 2f3e
00000320: 9c2a 86bd 5e25 81bd ad7e 1a3f d1b7 f03d
00000330: 142f 41be d311 92be a014 b6bd 208a 14bc
00000340: 38ba a33c 866e 3f3e 73fd b3be dcac 223e
00000350: 095a dd3d 91f6 acbb dc3b b9bb 06eb 003e
00000360: 7d6d 91be f2c4 c7bd e82b ed3d 7b9f de3d
00000370: 7cd6 07bc a444 753e 610a 39be fcd1 513e
00000380: cf99 43bd 855c 173e 8053 893a 5057 043d
00000390: bc63 8c3d 8ce2 75bd 6532 c03d d044 103d
000003a0: dc83 d7bd 6955 633d 644a 9e3d cc42 07bd
000003b0: ab8a 893e 6a7c 353e 60a4 273e 9fae 1cbe
000003c0: a297 973d 611f 303d a2c0 a93e b673 adbe
000003d0: c47c babd ec1a 1cbe d6b6 4fbe 9ada 403e
000003e0: b2c2 a93d 3003 19bc 18d0 6bbe 5a7d 8ebd
000003f0: 3eb2 f8bd c4dc 3b3d fb15 313e abf6 b0bd
0.04951719 -0.077348165 -0.2186056 0.023285069 0.07391037 -0.183907 0.06461942 0.20061523
-0.16642141 -0.16328427 0.02050816 0.024476692 -0.037167363 -0.15352598 -0.10064433 0.059802376
-0.20378502 0.060204297 0.052520543 0.12555641 -0.01515311 -0.1917621 0.67667717 -0.33295503
-0.34049895 -0.13945839 -0.219693 0.014815405 0.19213611 0.087799996 -0.3706987 0.06872043
-0.17272675 0.061782923 0.12265498 -0.050090358 0.101687506 -0.21450919 -0.08581038 0.19791624
0.00030129906 -0.06532159 0.3533543 0.07364821 0.15764387 -0.27153432 0.10038945 -0.06725626
0.08278642 0.058751494 -0.18204519 0.17197219 -0.36061203 0.06657517 0.17157029 -0.06584815
-0.10544739 -0.0661484 -0.21985437 -0.08539402 -0.12950659 -0.119510904 0.09485703 0.036315437
-0.08028767 0.1756212 -0.11208944 -0.21188517 0.22117248 -0.07747686 -0.19317314 0.12059268
0.02304782 -0.2020587 -0.16442612 0.2183026 -0.20088024 0.19342284 0.018945202 -0.21244669
0.07520905 -0.12578747 0.026941001 -0.10562237 -0.040113926 0.12621406 0.22232604 0.2046228
0.0008314252 0.0018423498 -0.13953313 -0.09509081 0.06983885 -0.12794945 -0.2217626 -0.046415165
-0.10340774 -0.18109694 -0.017527446 -0.20181978 -0.118703835 -0.0038366318 -0.053795263 0.08113298
0.023423404 -0.07511407 -0.010181099 -0.05037178 -0.09946364 -0.034061074 -0.08346191 0.07918936
0.017944977 -0.0652616 -0.0013151318 -0.14942881 -0.20075257 -0.19542412 0.035505295 0.21839693
0.1144343 -0.17328072 0.062293243 -0.20226386 -0.40874326 0.2132716 -0.10470282 0.06707078
0.08006182 0.22004253 0.08537976 0.06798801 0.16058463 -0.24120809 -0.23024482 -0.1988569
0.30050114 -0.13618766 0.2096489 0.22149254 -0.12006479 -0.22430286 -0.15714173 -0.12799379
0.016478946 0.15316056 -0.090247184 0.21713898 0.14051586 -0.09358306 0.06680068 -0.01260677
0.029542625 0.06515786 0.03608482 0.01871473 -0.024595626 0.20359033 -0.22203614 -0.0023872496
0.1984675 -0.278997 0.026907902 0.064778715 -0.15733352 0.031233763 -0.08689584 0.09954792
-0.018930718 -0.21945736 -0.07351466 -0.16497204 -0.073241726 0.038220163 0.18260048 -0.25804874
0.14798777 0.09971146 -0.122189246 -0.003268807 0.029357016 0.11541513 -0.085356854 -0.09663015
-0.086355425 -0.06182708 0.063443094 -0.15007961 0.04140407 -0.1268782 0.06329249 0.15109819
-0.04190129 -0.19623995 -0.15305181 0.124341674 0.17650977 0.05256734 0.12127036 0.1714125
-0.06551096 -0.06305955 0.6034954 0.1175381 -0.18865615 -0.28529224 -0.08890653 -0.009066135
0.019986257 0.18694505 -0.35154304 0.15886253 0.108081885 -0.0052784164 -0.0056528877 0.12589654
-0.28403845 -0.09754361 0.1158064 0.10870262 -0.008290883 0.23951966 -0.18070365 0.20490259
-0.047754105 0.14781387 0.0010477155 0.03230983 0.0685496 -0.060030505 0.09384612 0.035221875
-0.10523197 0.055501375 0.07729033 -0.033022687 0.26863608 0.17723241 0.16371298 -0.15300988
0.074019685 0.042998675 0.3315478 -0.33877343 -0.091058284 -0.15244645 -0.2028459 0.1883339
0.08289088 -0.009339139 -0.230286 -0.06957503 -0.12143372 0.045864835 0.17293541 -0.08640798

net.4.bias f4 [20]
00000000: 99d3 503e 03fd f53e 4336 8cbd 7392 1e3e
00000010: a8ae c2bd 00e5 65bc 505f 7b3e 01c5 c63c
00000020: c9c7 1cbe 929b c0bc 64be f3bd 8490 a5be
00000030: a7fb 283e f10b 9ebf d5bf 4abe 9898 273d
00000040: 724c 9f3e d458 eebd f2fb 523f bda6 ab3d
0.20393218 0.48044595 -0.06846287 0.15485553 -0.09505969 -0.014031649 0.24548078 0.02426386
-0.15310587 -0.023511682 -0.119015485 -0.3233682 0.16502248 -1.2347394 -0.1979974 0.04091701
0.3111301 -0.11638036 0.8241569 0.08381412

net.6.weight f4 [20, 20]
00000000: 6376 ae3c 4ba2 3cbe 341a cebd 900d 243d
00000010: 6083 323d dcef b13d a894 e23d a95d b23d
00000020: 51a1 ecbd c1af aabd 53d4 19be 625f da3d
00000030: a423 473d f6e9 a53c 0650 2b3e 143b 9c3d
00000040: 3a94 ff3d 9c71 b93d 4514 e33d 4297 05be
00000050: e390 febb b6e1 96bd fe89 8d3e 1791 073e
00000060: 5221 4cbe 1bee 28be 4eaa 263e 149c ccbc
00000070: a471 90bd d4bc b0bd 7f0c 56bc b4b9 7abe
00000080: 393e a33e c940 3fbe b47b 22bd 888b 203d
00000090: c9d2 673c c47b 433e b07c 08bf 133c 313d
000000a0: 00ab ee3d e0bb 69be 2981 933e 1727 613e
000000b0: a0cb df3c 14a6 a73d 6b0d 023c d6f1 c03d
000000c0: f309 31be fe58 a5bd b7d3 bc3d dc6b 453e
000000d0: 6c87 85bd db1b debd 1cdd f63d 207e 00be
000000e0: d7fb 813d 1e1c 26be 3554 03be f12c ce3d
000000f0: 00cc 133d 593c 04be 909a 113d 016c 54be
00000100: 4033 ff3c 903d e23d 0859 f8bd 23ef ef3d
00000110: 3a62 283e f466 4b3e d2c6 0c3e 3d09 4fbe
00000120: f03b 41bd 80b4 bebb c847 4b3e 6c38 d63d
00000130: 40ca fabb 3468 16bd 2965 643d 4d52 64be
00000140: 76d2 ca3d 8d93 d6be a7b5 563e 7f5d 51be
00000150: 3a21 2a3e 44d6 883d dbea 5a3e 88a3 c43c
00000160: 2873 5bbe 9bfa 363e c44e 263e 6d15 843d
00000170: 0b80 833e 9699 edbd 50e5 0ebe b837 bfbd
00000180: bacf bd3e 2000 35bc 08e5 05bf dd3c 273e
00000190: 7abc 35be 1d5c 37bd 0f60 02be 01cd 83bd
000001a0: 9442 ab3d ff5f 46be 7a1e 383e 9af0 0e3e
000001b0: 519c f5bc 5117 633d 1421 63be 74a0 55be
000001c0: ac5c 34be 4e49 cd3c 30c1 af3d f13c 3cbe
000001d0: 2954 4dbe 60c6 9bbc 5f9a 43bd 2db7 7dbe
000001e0: cce6 3fbd e507 3dbe 8f0d eb38 85b0 9a3d
000001f0: d8e3 23bd e8cd e2bc f5cb 9b3d 2f20 293d
00000200: bc78 873d 24d6 f83d 8787 83bd 4a17 39be
00000210: a934 2bbe ddb0 0d3e 9a17 bfbd 4ca2 7cbd
00000220: 1083 45be 7892 1abe d3a6 b03d 8e10 4fbe
00000230: 01cc 2cbd 0b9d 20bc 7629 e13d 85ec e9bc
00000240: d8b2 c5bd 8019 e33b 58f9 0d3e 3ee9 4b3e
00000250: b3d2 50be 0fbc fabd 16b3 bfbd c21d 003e
00000260: 3b0a 513e 46a2 d4bd 2082 973b d4d9 4b3e
00000270: dbd0 5b3e 8ee1 00be 955e 1abf ce9a 953c
00000280: 4a20 12be cfbc 873e 8582 8e3d 1805 273e
00000290: 4024 bebb d9c8 33be 9f45 bd3e 710f 9ebd
000002a0: 4266 163e c79e 9ebd 0ad9 483e 6997 273e
000002b0: 7806 4d3d 8dad b73e 86fa 133e e4c9 4e3e
000002c0: c665 8a3e b893 003e a565 9fbe 3111 0a3c
000002d0: 1d84 55be 7ffc 283e 0dba 2abd ba51 413d
000002e0: b8c4 303e 6438 253e 5f16 b13d 3fdd 1f3e
000002f0: 586e aebd 6748 1f3e a370 6abe c3c9 b2bd
00000300: c27e 4a3d 42fb a23e cd63 25be 4855 febc
00000310: 9b68 b0be 802f 41be c8a8 a03e 9dfd 95bd
00000320: b51a b03d 1cdc d5bb a8b9 c33d 9d10 773e
00000330: cc11 883d e893 9e3d 99e4 a1bd 6c25 f9bc
00000340: 5bff 073d 03bc cabd a40d 143e 9b0a 24be
00000350: 9ad9 b23c f6a9 e83d d46f 483e 70b6 193c
00000360: cfbc 133e 807c 0ebb 1600 6cbd 0be4 633e
00000370: ac87 163e fc17 7b3e 8a86 c1bc 468f d7bc
00000380: 6083 313e 108b a3bc fafe bdbe 6774 67be
00000390: 5d61 7ebd e4de 37bc d6e4 383c ab4d 02bf
000003a0: bcc5 3a3e d152 60bf 10c4 d33c 8cea 5bbd
000003b0: aae1 e73e d403 05be ae73 293e 8fb4 87bd
000003c0: 3d40 023c aee2 93be 01c5 4bbd 23d7 abbd
000003d0: a4da 3bbd b8cb 00bd b006 163e 0230 27be
000003e0: 56bb d5bd 478c 22be f54b 723e 8838 52be
000003f0: 5173 c4bd bbe8 f8be 6aa9 eebd 2812 fb3d
0.021296686 -0.18421285 -0.100635916 0.040051997 0.04358232 0.08688328 0.1106351 0.087092705
-0.11554206 -0.08334304 -0.15022402 0.10662724 0.048617974 0.020253163 0.16729745 0.07628456
0.12479444 0.090548724 0.110878505 -0.13045982 -0.0077687367 -0.0736727 0.27644342 0.13238941
-0.19934586 -0.1649708 0.16275904 -0.024976768 -0.07052925 -0.08629766 -0.013064503 -0.24484903
0.3188341 -0.18677057 -0.039668754 0.039195567 0.014149376 0.19090182 -0.5331526 0.043270182
0.116537094 -0.22825575 0.2880948 0.21987568 0.027318776 0.08185974 0.007937769 0.094211265
-0.17288952 -0.080736145 0.09220069 0.19279426 -0.0651997 -0.10845157 0.12053892 -0.12548113
0.06346863 -0.16221663 -0.12825091 0.10067166 0.03608322 -0.12913646 0.035547793 -0.20744325
0.031152368 0.11046898 -0.12126356 0.117155336 0.1644372 0.19863492 0.13747719 -0.20218368
-0.0471763 -0.005819857 0.19851601 0.1045998 -0.0076535046 -0.03672047 0.055760536 -0.2229702
0.099034235 -0.41909447 0.20967732 -0.20445822 0.16614237 0.06681493 0.21378653 0.024003759
-0.21430647 0.17869036 0.16240984 0.06449399 0.25683627 -0.1160156 -0.13954663 -0.093367994
0.37072545 -0.011047393 -0.523026 0.16331811 -0.1774768 -0.04476558 -0.12731956 -0.06435586
0.08362308 -0.19372557 0.17980376 0.1395897 -0.029981764 0.055442158 -0.22180587 -0.2086199
-0.17613477 0.025059368 0.085817695 -0.18382622 -0.20051636 -0.019015491 -0.04775464 -0.24776907
-0.046850964 -0.18460043 0.00011208199 0.075532 -0.04001221 -0.027686074 0.07607261 0.04129046
0.06614825 0.12150219 -0.06422334 -0.1807529 -0.16719307 0.13836999 -0.093306735 -0.061678216
-0.19288278 -0.15094936 0.08625569 -0.20221159 -0.04218674 -0.009803067 0.10994236 -0.028555164
-0.09653252 0.00693053 0.13864648 0.19913194 -0.20392875 -0.122429006 -0.0936033 0.12511352
0.20414059 -0.10382514 0.0046236664 0.19907314 0.21466391 -0.12586042 -0.6030057 0.018262293
-0.1427013 0.26511237 0.069584884 0.16310537 -0.005802661 -0.17557086 0.3696718 -0.07717789
0.14687446 -0.07745128 0.19614044 0.16366352 0.050054997 0.35874596 0.14451036 0.20194203
0.27030772 0.1255635 -0.31132236 0.00842695 -0.20851178 0.1650257 -0.041681338 0.04719708
0.17262542 0.16134793 0.08646845 0.15611742 -0.0851714 0.15554963 -0.2289453 -0.08729889
0.049437292 0.3183232 -0.16151352 -0.031046525 -0.34454808 -0.18865776 0.3137877 -0.073237635
0.08598844 -0.006526483 0.095568955 0.24127431 0.066440195 0.07743055 -0.0790493 -0.030413352
0.03320251 -0.09899142 0.14458328 -0.1601967 0.021832276 0.113605425 0.19573909 0.009381875
0.14427494 -0.0021741688 -0.05761727 0.2225496 0.14700192 0.24520868 -0.023623724 -0.026313435
0.17335272 -0.019963771 -0.37108594 -0.22602998 -0.06210457 -0.011222575 0.0112850275 -0.5089976
0.18239492 -0.8762637 0.025850326 -0.05369048 0.45289356 -0.12989742 0.16548035 -0.06626236
0.007949886 -0.2888388 -0.049748424 -0.083906434 -0.04586281 -0.03144428 0.14650989 -0.16326907
-0.10436122 -0.15873824 0.23661788 -0.20529377 -0.09592307 -0.4861506 -0.11653407 0.122593224

net.6.bias f4 [20]
00000000: 224b 7cbe de50 fb3b 0be7 0b3e c753 87bd
00000010: 6e0e 0d3e 63eb 313d 4f15 9dbd 3de0 293d
00000020: 14b5 0cbe d3e9 41bf d232 e93d d701 4e3f
00000030: 00b0 613f 89c4 ebbd dfa7 9a3e 55b7 0f3d
00000040: 189e eebd bb3f dcbd 4734 cf3d b48a 81bf
-0.24638036 0.007669552 0.13662355 -0.06607776 0.13775036 0.043437373 -0.0767008 0.041473616
-0.13740951 -0.7574741 0.11386646 0.8047156 0.8815918 -0.115120955 0.302062 0.03508695
-0.11651248 -0.10754343 0.10117393 -1.0120454

net.8.weight f4 [20, 20]
00000000: e17c 50be 2871 973e fa2b 5bbd a876 863d
00000010: ab69 9d3e 38cb 1b3e d2a4 293e efbf 273e
00000020: e16b 353f 6900 c03e b3dc 413e 85d3 293f
00000030: a739 f03e dfb6 4cbd 0c72 4ebf 9e9f c53d
00000040: 8014 47bb f4a7 5cbe 20b7 963a c36f 813c
00000050: b5e5 d83d cc0d d33e 9e69 853d abab ef3d
00000060: 3c5c c43e 343f 143e 055a 3f3e 0cb5 943e
00000070: b5ac 683e 5479 d9be aa18 2f3e d194 32bf
00000080: 87de e83e 6ccb ed3d 7dca 3d3f c91e 433e
00000090: 992a 8c3d 0c91 c83d 6677 1c3e 53b8 f43e
000000a0: e2ad 153e 687a 843e 76ad cdbd d766 3cbe
000000b0: 6d58 ad3e 1363 2dbe 337a a7bb 7cf8 bebd
000000c0: 2b38 4f3e 18d1 42bc 982e 353d 0c51 0abf
000000d0: fd7d b23e 2ccc 333e 1c69 743e 6084 053e
000000e0: b551 2abe dafe bdbd 5db8 503e 5a49 f13e
000000f0: b22e efbd bc10 b4bd d0d7 c93d 380c ae3d
00000100: 4af6 0abe 04b7 263e de75 88bd 66a8 203e
00000110: b8bc 2d3d f439 ef3d 143e fbbd 6c19 88bd
00000120: b70b 39be 1853 07bd f023 2b3d 7878 2cbd
00000130: 70b3 093e 660e 3cbe 90fd a93d b8bd 5fbe
00000140: 425c 903d eec1 62bc 3416 183e b72a 2fbe
00000150: 5df6 c4bd 64ae 43be ad7f 503d 1159 e5bd
00000160: 2cdc 163e 2433 d53d e787 36be 18c1 ebbd
00000170: 2726 003d 88d8 c63c edbb 27be bcfb f63d
00000180: fb75 06be 62e8 513e 1641 ed3d a766 bcbd
00000190: c362 ce3a d4fd 62bd 263b 2e3e d589 2bbe
000001a0: fcf7 583d 5793 773e 3967 37be b22a 8a3c
000001b0: 8730 0e3e 30e8 a5be 63d9 963d 8966 f2be
000001c0: 5473 703d d006 0d3e 0ff1 b33e 668f 533e
000001d0: a754 5ebd b640 aabd d701 413e 0d04 363e
000001e0: 9e5f a8bd d022 3ebd b066 2ebc 2af9 80bd
000001f0: c075 36bb 9c7d 09be c7e2 49be 3c23 a0bd
00000200: b4d7 5cbd 0c34 38bd 2c89 4fbe 072f 4fbe
00000210: 62f3 bfbd 2c82 a93d 2139 f2bd 402c 9c3b
00000220: 9037 08be f81b 14bd 1432 f33d b0b2 bebc
00000230: a550 4a3e 5c7e 403d 8418 8e3e f338 2d3e
00000240: 965c 403e b3b2 b1bd caba 503d d430 f53d
00000250: 68d8 613c a2da b3be c031 2e3e f3b7 72be
00000260: 2ffc bd3e 3752 8abd 3391 9a3e 27e8 643c
00000270: 5ce8 37bd d3a1 283e a705 583e 60d2 cf3e
00000280: 1a8e 28be 7a0f c6bd 0e51 18be 0e95 38be
00000290: 1372 203c 2005 b63d aef6 10be baeb 49be
000002a0: eb6f f03d 3d30 313e f1c9 66bd 570c 343e
000002b0: 1dcf ae3d b1e1 acbd 8a0b 993d 689a e93d
000002c0: f9a0 24be 29b1 273e 7846 c3bd 355c 8b3d
000002d0: 88ad 23be ae62 823e f8e8 67bb 8e2e 28be
000002e0: 5d22 13be 4732 823d 28d3 5c3e 4b93 3bbe
000002f0: 1eb0 673e 5dfa c43c 21fc 693d 04e6 d3bd
00000300: 6842 8f3e 684f 5e3b d924 aa3e dff3 c2bd
00000310: 511c 91bd 198c 2cbd 8de6 f8bd ee7e 84bd
00000320: 3209 84bc 11eb a63d 1985 b93d fd4d 423e
00000330: 5a9c 583e d693 18bd 75d5 1c3e dd73 813e
00000340: d79f 26be e880 73be 0158 c83a 74c6 47be
00000350: 517e ee3d 2db5 d2bd 474e e43d 1324 663e
00000360: 68e0 0abe bb39 743c 74b9 43bc 2159 203e
00000370: fd41 54be 36c3 883e 40b4 c53d b787 5dbe
00000380: cc7c ae3e 0c4c 713e cb98 10be 5daf 953e
00000390: c5ff 893e 9bd1 89be 68ea 523d a59c 8cbe
000003a0: 2fdd 323e 93e5 553d 8104 ef3e 1485 22be
000003b0: 8739 613d 7208 acbc 0de2 2cbd b5a8 7d3e
000003c0: d255 213e 1ca0 5d3e 2329 823d a814 18be
000003d0: d5e6 93bd 5674 6f3d 3a14 403e ab4f 21be
000003e0: ff74 54bd f260 66bd 2144 c23d 77cd 7f3d
000003f0: f8c4 49be 5f29 37be d34b b53d 1312 8d3c
-0.20360138 0.2957852 -0.053508736 0.06565601 0.3074468 0.1521424 0.1656678 0.1638181
0.70867735 0.37500313 0.18931846 0.6633838 0.46918985 -0.049979087 -0.8064277 0.09649585
-0.003037721 -0.21548444 0.0011498667 0.015800362 0.10590688 0.41221464 0.065142855 0.11702665
0.3835162 0.14477235 0.18686683 0.29044378 0.22722133 -0.4247538 0.17099252 -0.69758326
0.45482275 0.11611065 0.741371 0.19054712 0.06844062 0.097932905 0.15279922 0.47796878
0.14617112 0.2587464 -0.10042851 -0.18398605 0.33856526 -0.16932325 -0.005111003 -0.093247384
0.2023627 -0.011890672 0.04423389 -0.5402992 0.34861746 0.17558354 0.23868221 0.13038778
-0.16632731 -0.09277125 0.20382829 0.47126275 -0.11678828 -0.08792254 0.09855616 0.08498424
-0.13570514 0.16280752 -0.066631064 0.15689239 0.042416304 0.116809756 -0.122677 -0.06645474
-0.18070875 -0.03303823 0.04178232 -0.042107075 0.13447356 -0.18364868 0.08300316 -0.21849716
0.07048847 -0.013840182 0.1485222 -0.17106138 -0.096173026 -0.19109493 0.05090301 -0.11198629
0.14732426 0.10410145 -0.1782528 -0.11511439 0.031286385 0.024273172 -0.16380282 0.12059733
-0.13130943 0.20498803 0.1158468 -0.09199267 0.0015745986 -0.05541785 0.17014751 -0.16751797
0.05297087 0.241773 -0.1791047 0.016866062 0.13885699 -0.32403708 0.07365682 -0.47343853
0.058703735 0.1377213 0.3514485 0.20660171 -0.05427995 -0.08313124 0.18848358 0.17774983
-0.082213625 -0.04641992 -0.0106446 -0.06297524 -0.002784118 -0.13426822 -0.19715415 -0.078192204
-0.053916648 -0.04497151 -0.2026717 -0.20232783 -0.093725935 0.082767814 -0.11827303 0.004766017
-0.13302445 -0.036159486 0.11874786 -0.023278564 0.19757326 0.046995506 0.2775308 0.16916256
0.18785319 -0.08676662 0.050959386 0.11972204 0.013784505 -0.3512774 0.17011166 -0.23702984
0.37106463 -0.067539625 0.30188903 0.013971365 -0.04489933 0.16467981 0.21095906 0.4059019
-0.16460457 -0.09670921 -0.1487467 -0.1802561 0.009792822 0.08887696 -0.14156601 -0.19718829
0.11740097 0.17303558 -0.05634493 0.17582832 0.085355975 -0.08441485 0.07472904 0.11406404
-0.16077031 0.16376175 -0.09534925 0.068046965 -0.15984166 0.25465912 -0.0035386663 -0.16424009
-0.14368577 0.06357246 0.21564925 -0.18317907 0.22625777 0.024045164 0.057125214 -0.103466064
0.2798035 0.0033921842 0.33231238 -0.09519171 -0.07085479 -0.042125795 -0.12153349 -0.064695224
-0.016117666 0.08150304 0.090585895 0.18975063 0.21153393 -0.037250362 0.15315802 0.2528371
-0.16271912 -0.23779643 0.0015285016 -0.19509298 0.11645187 -0.10288463 0.11147743 0.22474699
-0.13562167 0.014906342 -0.011946071 0.15659 -0.20728298 0.26711434 0.096535206 -0.21633802
0.34079587 0.23564166 -0.14120786 0.29235354 0.2695295 -0.2691773 0.05149308 -0.2746326
0.17467187 0.052220892 0.46683124 -0.15871078 0.054986503 -0.02100012 -0.042207766 0.24771388
0.15755394 0.21643108 0.063555025 -0.1485163 -0.07221762 0.058460556 0.18757716 -0.15753047
-0.05186939 -0.056244798 0.09485651 0.062451806 -0.19704044 -0.17886876 0.08852353 0.017220533

net.8.bias f4 [20]
00000000: bb6d 5dbf 1bef 633d 42d2 673e 3499 49be
00000010: 9981 34be d17d 7b3e d9d8 33be 30bd 593c
00000020: 4bd3 21be f3bb 283e 92ef 143e db1e 56bc
00000030: c3d9 d7bd f43d 193d 0537 d1bd 70c0 37be
00000040: ba88 35bd 98a7 18bd c182 22be 509d d03d
-0.8649556 0.05564795 0.226388 -0.19687349 -0.17627563 0.24559714 -0.1756319 0.013289735
-0.15803258 0.16477947 0.14544514 -0.01306888 -0.105395816 0.0374126 -0.10215572 -0.17944503
-0.044319846 -0.037269205 -0.15870191 0.10186255

net.10.weight f4 [1, 20]
00000000: b99a b2bf 4b46 843f 35d4 423f ca2b 483e
00000010: 1ba7 9f3d 6912 e93e 250a 4abe a100 203f
00000020: 9841 12be 2ce7 493e 75f8 be3e d3d8 153f
00000030: 30ec 2bbd ef3c c1be ec50 abbd e8df f53d
00000040: 9025 453e e320 203e b295 a33e a6d8 043c
-1.3953468 1.0333952 0.7610505 0.19547954 0.07795545 0.45521858 -0.19730432 0.6250096
-0.14282835 0.19717091 0.37298933 0.5853397 -0.041973293 -0.377418 -0.08365044 0.12005597
0.1925261 0.15637545 0.31950146 0.008108294
